src/app/model/learned_models/WristGestureClassifierModel_v1.0.pth (torch, 4179 bytes, 6 tensors)

norm.weight f4 [42]
2.3018973 1.988905 1.926269 1.4498309 2.3408089 1.8941523 1.3325453 1.3864223
6.3947 4.0899405 3.925918 1.1424887 1.8940921 2.6099188 1.8661126 2.488224
3.3155043 4.950217 1.8572965 1.2176279 1.147617 2.4203045 1.4735864 2.2625592
1.6447951 3.5369434 1.1639202 1.4863547 1.8352302 2.4153554 1.6199962 1.5282968
1.2974104 1.1210314 0.87898827 1.5122733 2.2823088 1.6140118 2.0642788 1.2738564
2.1240284 3.8629305
00000000: 4952 1340 7094 fe3f fc8f f63f 0f94 b93f
00000010: d0cf 1540 9573 f23f d890 aa3f 4976 b13f
00000020: 62a1 cc40 cbe0 8240 3e42 7b40 123d 923f
00000030: 9c71 f23f e908 2740 c7dc ee3f 103f 1f40
00000040: 3931 5440 2d68 9e40 e4bb ed3f 3bdb 9b3f
00000050: 1de5 923f 45e6 1a40 7b9e bc3f c5cd 1040
00000060: a588 d23f 485d 6240 56fb 943f df40 be3f
00000070: d3e8 ea3f 2f95 1a40 095c cf3f 3b9f c33f
00000080: 8b11 a63f f57d 8f3f 6005 613f 2c92 c13f
00000090: 5911 1240 f097 ce3f 251d 0440 ba0d a33f
000000a0: 15f0 0740 413a 7740

norm.bias f4 [42]
-0.08332783 -0.03074266 -0.06569762 -0.050615113 -0.035976365 -0.037919838 -0.036087893 0.027786743
-0.122409105 0.016122488 -0.0784454 0.0048138155 -0.014998422 0.059529826 -0.004630767 -0.06032138
0.02957479 -0.1578677 -0.026910003 0.04277529 -0.009428265 0.06775524 0.034493968 -0.03475459
-0.020490766 -0.02455079 -0.01644883 0.011430569 0.0920266 -0.011834731 0.06584766 -0.0151713025
0.01643406 0.009687871 0.010861111 -0.0054991357 0.15744603 0.05750346 0.14290373 0.12405586
0.112987734 0.2992351
00000000: c8a7 aabd 08d8 fbbc 798c 86bd cb51 4fbd
00000010: f45b 13bd d551 1bbd e6d0 13bd 06a1 e33c
00000020: a0b1 fabd 4f13 843c fba7 a0bd 36bd 9d3b
00000030: f1bb 75bc 8cd5 733d b0bd 97bb 8d13 77bd
00000040: d446 f23c 12a8 21be 5e72 dcbc 2435 2f3d
00000050: 0279 1abc 42c3 8a3d 8c49 0d3d d45a 0ebd
00000060: 40dc a7bc bd1e c9bc b2bf 86bc 4847 3b3c
00000070: 7178 bc3d 76e6 41bc 23db 863d 0e91 78bc
00000080: b9a0 863c e0b9 1e3c cdf2 313c 1832 b4bb
00000090: 8839 213e c088 6b3d 5b55 123e 0011 fe3d
000000a0: 1d66 e73d 5835 993e

norm.running_mean f4 [42]
0.45561236 0.678581 0.51561195 0.6200971 0.5547446 0.52737266 0.567777 0.45311642
0.56840765 0.40682107 0.49655324 0.43508086 0.505889 0.35876504 0.512637 0.34969112
0.51686937 0.34220192 0.4558208 0.43966746 0.47539282 0.38145423 0.48614436 0.43956283
0.487437 0.47617033 0.41841403 0.45896977 0.44225115 0.41530818 0.4572415 0.4938261
0.45958227 0.5443191 0.38395602 0.48817933 0.40264848 0.44547454 0.415468 0.48707396
0.41649213 0.5150072
00000000: 0646 e93e 7cb7 2d3f 25ff 033f afbe 1e3f
00000010: be03 0e3f e501 073f d559 113f e0fe e73e
00000020: 2a83 113f da4a d03e 3a3c fe3e ebc2 de3e
00000030: f181 013f 0db0 b73e 2e3c 033f b70a b33e
00000040: 8d51 043f 1735 af3e 5861 e93e 181c e13e
00000050: b066 f33e f84d c33e eae7 f83e 610e e13e
00000060: 5891 f93e 99cc f33e 5d3a d63e 16fe ea3e
00000070: be6e e23e 46a3 d43e 8f1b ea3e c6d6 fc3e
00000080: 5e4e eb3e 7f58 0b3f e295 c43e a4f2 f93e
00000090: f127 ce3e 3d15 e43e 39b8 d43e c261 f93e
000000a0: 753e d53e 83d7 033f

norm.running_var f4 [42]
0.045984175 0.028059205 0.04757947 0.026595121 0.050067324 0.027269283 0.054158535 0.028820321
0.05829399 0.031162739 0.049269054 0.027498847 0.054118183 0.028489824 0.056063857 0.031098956
0.05772621 0.038725127 0.050104354 0.028361809 0.05719036 0.030798648 0.056013547 0.033965845
0.053994853 0.039847646 0.050629895 0.029712375 0.059556726 0.0324349 0.056673747 0.030501464
0.052596968 0.028746443 0.051200695 0.03130732 0.05944979 0.034189507 0.058122568 0.035940237
0.054987986 0.038777262
00000000: e759 3c3d 6bdc e53c b1e2 423d 03de d93c
00000010: 6513 4d3d d563 df3c 57d5 5d3d 9818 ec3c
00000020: aec5 6e3d 0049 ff3c 59ce 493d 4345 e13c
00000030: 07ab 5d3d 7e63 e93c 37a3 653d 3dc3 fe3c
00000040: 5272 6c3d 3d9e 1e3d 393a 4d3d 0657 e83c
00000050: 7040 6a3d 724d fc3c 766e 653d c51f 0b3d
00000060: b529 5d3d 4937 233d 4b61 4f3d 5e67 f33c
00000070: c1f1 733d 75da 043d bb22 683d 35de f93c
00000080: eb6f 573d a97d eb3c d2b7 513d 1b3c 003d
00000090: 9f81 733d 4c0a 0c3d ee11 6e3d 1236 133d
000000a0: 153b 613d e8d4 1e3d

linear.weight f4 [7, 42]
-0.06326659 0.6253898 0.14700167 0.88417757 0.13222362 1.005271 -0.07940918 0.523148
-0.5615399 1.1619768 0.9360507 0.3603597 0.14317626 0.019988764 0.036407676 -0.19876048
-0.03546797 -0.72704846 0.31783685 0.30129832 0.073442124 -0.36900967 -0.26228523 -1.5169418
-0.16859502 -3.2541096 0.2702299 0.4932035 -0.21329726 0.25866884 -0.06896208 0.3431812
-0.05903042 0.5298525 -0.09323654 0.4347764 -0.1991027 0.27650857 -0.24249364 0.39145023
0.023100603 1.1070905 1.0934583 -0.66786265 1.030839 0.41812596 1.3811557 1.1889387
0.1997319 0.6242622 -2.9555268 2.5516794 2.318468 -0.26885137 0.38569185 -0.96619284
-0.13316658 -1.5338597 -1.046006 -2.7769125 0.94104785 0.085555054 -0.028172823 -0.5244338
0.4125149 0.3785918 0.6623628 2.1784663 0.5032246 0.164736 -0.11097414 -0.3890921
0.2150169 -0.17496327 0.48113808 0.18271999 0.2565442 0.024040882 -0.27064088 -0.2509916
-0.00825106 -0.26086447 0.73174816 0.40572187 -0.9533949 -1.2658548 -1.29702 -0.7330619
-1.3095154 -0.46461064 -0.12795854 0.4653143 3.3283973 1.1272508 -1.3609834 0.084612176
-1.3300563 -0.47741055 -0.9804709 -1.117741 -1.0582086 -2.6722953 -0.230794 0.12760381
0.08357453 2.0374022 -0.16668008 1.6063541 -0.8048656 0.66240644 0.045299545 -0.1833717
0.36535457 1.486784 -0.026858889 0.6793167 -0.53828555 -0.35022607 0.14866148 -0.24439408
0.74894696 0.94173187 0.259007 0.68429375 0.050362855 -0.4865697 -0.4608725 1.0677955
-0.5475665 0.08297563 -1.2889674 -0.6538262 -1.1424289 -0.45277655 -0.09627141 -3.111753
-2.887757 0.5597047 0.23366168 2.3901122 1.3010857 1.2797719 2.8864121 -0.700383
-1.4398141 0.42268148 -0.06964943 0.14831845 0.3952982 0.15272859 0.43745923 -0.010413803
-0.6930489 0.25369343 0.84011155 -0.14695263 0.8197969 0.37738833 0.21258727 0.32394156
-0.36472803 -0.28228724 1.3021846 -0.16315188 1.218778 0.19347098 0.4739418 0.8495382
1.6682365 0.55135685 0.92341495 0.234224 0.46562794 -0.5677609 -0.00028640527 -0.5043735
-1.0252135 -0.60341245 0.3301135 -0.14497659 -0.0018680037 -0.312415 0.1899541 0.5545298
0.60952246 1.6181933 0.21247299 0.23379973 -0.015638085 0.2421068 0.4680337 0.25612572
0.86282825 0.3178652 0.20666584 0.78229934 -0.1020958 0.74573225 0.28299904 0.26122436
0.5183793 0.25830173 0.097261064 0.9964421 -0.7250246 0.724306 -1.2740548 -0.9408641
-1.8534617 -3.7363043 -0.27671412 -0.50608796 -0.073762454 -0.7528615 -0.042264525 -0.774533
0.33594856 -0.73099256 4.199498 -0.8131529 -0.24412471 -0.34052774 -0.8280937 -0.27907997
-0.7840403 1.3207674 -1.1209344 2.2705858 -0.54748267 -0.5543941 -0.8220844 -0.23978081
-1.1434076 0.17111546 -0.76810944 -0.00702367 -0.4344859 -0.49257687 -1.5363326 -0.16043603
-1.3603659 -0.16318162 -0.8470455 -0.4084376 -0.41590384 -0.34274217 -1.5650687 -0.53838724
-0.98858863 -0.23087585 -0.16066344 0.2914294 -0.89070445 0.02608354 -0.02109059 0.18018638
00000000: ea91 81bd 8c19 203f 9b87 163e 7659 623f
00000010: a165 073e b8ac 803f 48a1 a2bd 07ed 053f
00000020: 14c1 0fbf a8bb 943f 05a1 6f3f 1181 b83e
00000030: cc9c 123e 7abf a33c 3720 153d de87 4bbe
00000040: dd46 11bd d91f 3abf 83bb a23e c643 9a3e
00000050: d368 963d d6ee bcbe 404a 86be 262b c2bf
00000060: 2ca4 2cbe 5543 50c0 935b 8a3e 2b85 fc3e
00000070: 996a 5abe 3e70 843e fe3b 8dbd 72b5 af3e
00000080: e2c9 71bd 6aa4 073f cdf2 bebd 039b de3e
00000090: 94e1 4bbe 8892 8d3e 4150 78be 2a6c c83e
000000a0: 7a3d bd3c 24b5 8d3f 71f6 8b3f 0cf9 2abf
000000b0: 88f2 833f 9b14 d63e b6c9 b03f 252f 983f
000000c0: 8586 4c3e a6cf 1f3f 5a27 3dc0 b74e 2340
000000d0: c861 1440 e3a6 89be 6779 c53e 6a58 77bf
000000e0: d25c 08be 8455 c4bf 86e3 85bf efb8 31c0
000000f0: 83e8 703f 7d37 af3d b1ca e6bc 4b41 06bf
00000100: 2735 d33e c9d6 c13e 9c90 293f fe6b 0b40
00000110: 54d3 003f 8eb0 283e 6946 e3bd 1437 c7be
00000120: 642d 5c3e 9229 33be bb57 f63e f31a 3b3e
00000130: c359 833e 62f1 c43c 7191 8abe f981 80be
00000140: 742f 07bc 0790 85be d953 3b3f c7ba cf3e
00000150: b011 74bf 8807 a2bf c004 a6bf f2a9 3bbf
00000160: 339e a7bf 72e1 edbe 9007 03be ad3d ee3e
00000170: 7604 5540 c149 903f b434 aebf 2649 ad3d
00000180: 493f aabf 286f f4be 2400 7bbf 2312 8fbf
00000190: 6173 87bf e306 2bc0 4355 6cbe 93aa 023e
000001a0: 2029 ab3d cc64 0240 2fae 2abe 039d cd3f
000001b0: ac0b 4ebf 7893 293f 048c 393d cac5 3bbe
000001c0: c10f bb3e f04e be3f 2c07 dcbc b3e7 2d3f
000001d0: 15cd 09bf d550 b3be b73a 183e 7142 7abe
000001e0: fdba 3f3f 5715 713f 919c 843e e02d 2f3f
000001f0: 4849 4e3d aa1f f9be 7bf7 ebbe 86ad 883f
00000200: 512d 0cbf 21ef a93d e2fc a4bf 2761 27bf
00000210: 1c3b 92bf 54d2 e7be f229 c5bd f626 47c0
00000220: 03d1 38c0 cf48 0f3f 0245 6f3e 99f7 1840
00000230: fa89 a63f 91cf a33f faba 3840 4d4c 33bf
00000240: d44b b8bf b569 d83e 5ca4 8ebd cbe0 173e
00000250: 8764 ca3e e264 1c3e a8fa df3e a89e 2abc
00000260: a76b 31bf 1be4 813e 8d11 573f c07a 16be
00000270: 36de 513f 0b39 c13e 7ab0 593e abdb a53e
00000280: a2bd babe f487 90be fcad a63f 4911 27be
00000290: eb00 9c3f 421d 463e 80a8 f23e 567b 593f
000002a0: c688 d53f b925 0d3f ec64 6c3f 6bd8 6f3e
000002b0: c966 ee3e c758 11bf aa28 96b9 9f1e 01bf
000002c0: 323a 83bf 3d79 1abf a304 a93e be74 14be
000002d0: ced7 f4ba dcf4 9fbe 5483 423e aaf5 0d3f
000002e0: aa09 1c3f f520 cf3f 8592 593e 3269 6f3e
000002f0: 711b 80bc d8ea 773e 1da2 ef3e e922 833e
00000300: 50e2 5c3f 3abf a23e 36a0 533e c544 483f
00000310: 9a17 d1bd 4fe8 3e3f 40e5 903e 33bf 853e
00000320: 81b4 043f 2040 843e cf30 c73d d416 7f3f
00000330: 369b 39bf 1e6c 393f 3a14 a3bf 78dc 70bf
00000340: 3c3e edbf 9c1f 6fc0 79ad 8dbe fb8e 01bf
00000350: c510 97bd 88bb 40bf 911d 2dbd cb47 46bf
00000360: 7301 ac3e 5422 3bbf 4a62 8640 ca2a 50bf
00000370: d4fb 79be a759 aebe f3fd 53bf 92e3 8ebe
00000380: ddb6 48bf e80e a93f c77a 8fbf 4751 1140
00000390: d327 0cbf c6ec 0dbf 2074 52bf 1a89 75be
000003a0: 2e5b 92bf e438 2f3e d2a2 44bf d026 e6bb
000003b0: f074 debe 0933 fcbe 8ca6 c4bf 5849 24be
000003c0: 7820 aebf 1519 27be f9d7 58bf bc1e d1be
000003d0: 59f1 d4be e77b afbe 2c54 c8bf bfd3 09bf
000003e0: 2514 7dbf b86a 6cbe f584 24be 3c36 953e
000003f0: 3505 64bf 26ad d53c 2cc6 acbc c782 383e

linear.bias f4 [7]
-0.066664346 -0.060350347 0.20886102 0.26888755 -0.123116545 -0.1729351 0.10152344
00000000: 5187 88bd ed31 77bd aadf 553e a1ab 893e
00000010: 8724 fcbd e615 31be 85eb cf3d
